final_model.pth (torch, 693168 bytes, 6 tensors)

fc1.weight f4 [198, 770]
0	0x3cad3e39	0.021147834
1	0xbcbbf2c3	-0.022942906
2	0xbc4f2f92	-0.012645619
3	0xbc7405c1	-0.01489395
4	0xbcd44dc7	-0.025915993
5	0xbc88a59e	-0.016680535
6	0xbc31b140	-0.010845482
7	0xbcd7ccb3	-0.026342725
8	0x3b96f30b	0.0046066097
9	0x3c9ae557	0.018908186
10	0x3cebf655	0.028803984
11	0xbc87c1aa	-0.016571838
12	0x3d13b5f5	0.0360622
13	0xbd15b55c	-0.03654991
14	0xbcb98d81	-0.022650482
15	0x3b23cbdf	0.0024993343
16	0x3c6da3ba	0.0145043675
17	0xba4f41cd	-0.00079062284
18	0x3c829ed8	0.015944883
19	0x3d0e2fbf	0.034713503
20	0xbc9fba68	-0.019498065
21	0xbc275351	-0.010212735
22	0xbc68db45	-0.014212434
23	0x3c9b45db	0.018954208
24	0xbb920686	-0.004456344
25	0xbc50ba16	-0.012739679
26	0xba0af347	-0.00053005334
27	0xbcd09b2a	-0.025464613
28	0xbcb548cd	-0.02212944
29	0x3d16be2b	0.036802452
30	0xbbbc6a49	-0.005749975
31	0x3c13032b	0.008972923
32	0xbce6174f	-0.028087286
33	0xbcce5318	-0.025186107
34	0x3c3a1ba7	0.011359132
35	0xbcda53dd	-0.026651317
36	0x3cc3a29e	0.023881253
37	0x3c183d33	0.009291935
38	0x3cadb409	0.021204012
39	0x3cddb2e0	0.027062833
40	0x3d0b34e0	0.033985972
41	0xbce3d75b	-0.02781265
42	0xbc351595	-0.011052509
43	0xbd0d9830	-0.034568965
44	0xbcb929ff	-0.022603033
45	0x3c227760	0.0099161565
46	0xbce849b9	-0.028355466
47	0x3d0c9a1c	0.034326658
48	0xbc732ae1	-0.014841766
49	0xbbbf9853	-0.005847016
50	0xbbd2bae0	-0.0064309686
51	0x3ba852c3	0.005136819
52	0xbcc45097	-0.02396421
53	0xbcad6e5f	-0.021170793
54	0x3b044e75	0.0020188366
55	0x3d0747cd	0.03302746
56	0x3cfe2d76	0.031027537
57	0xba6eadae	-0.000910486
58	0x3c184d99	0.0092958445
59	0xbc60b1d8	-0.013714276
60	0xbd165cb0	-0.036709487
61	0x3a2b5eba	0.00065372477
62	0xbaf3b525	-0.0018593414
63	0x3c7b6030	0.015342757
64	0x3b734162	0.0037117829
65	0xbc41652c	-0.011803906
66	0xbd173e3c	-0.036924586
67	0xbcc382ff	-0.023866175
68	0x3cd0175d	0.025401765
69	0xbcee2935	-0.029072383
70	0xbcbe51ad	-0.023232305
71	0xbc07ea40	-0.008295596
72	0xbc998954	-0.018742241
73	0xbc562b36	-0.013071826
74	0xbc45989a	-0.012060309
75	0x3a2dfbb6	0.0006636934
76	0x3d0d9a85	0.03457119
77	0xb8021b33	-3.1019747e-05
78	0xbc075528	-0.008260049
79	0xbd015e71	-0.031584207
80	0xbbf806a7	-0.0075691524
81	0x3ce0c31f	0.027436791
82	0x3b407eed	0.0029372529
83	0x3c80b182	0.015709642
84	0x3c3b69f8	0.011438839
85	0x3d139071	0.036026422
86	0xbc62f5e4	-0.01385257
87	0x3d045246	0.032305025
88	0xbccf1c3e	-0.025282022
89	0x3c4c3b33	0.012465286
90	0x3cd57d2a	0.02606066
91	0x3cdf215d	0.027237589
92	0x3cc9c676	0.024630766
93	0x3c70499d	0.014665988
94	0x3c88efb8	0.01671587
95	0x3c6d6c5d	0.014491168
96	0x3c6b0f04	0.014346842
97	0x3cff34c9	0.0311531
98	0xbcb508bb	-0.02209889
99	0x3bd5137f	0.0065025683
100	0x3c4d93c9	0.012547442
101	0x39ba7b8f	0.00035568743
102	0xbd0f5a3f	-0.034998175
103	0xbc422f87	-0.011852152
104	0xbc48ac8b	-0.012248169
105	0x3d0899ce	0.033349805
106	0xbd165b4b	-0.036708158
107	0xbbda5557	-0.0066630053
108	0xbc6b10d2	-0.014347272
109	0xbc2a44ad	-0.01039235
110	0xbbe482a4	-0.0069735814
111	0x3d065c36	0.032802783
112	0xbd00c0df	-0.031433936
113	0xbcc4da05	-0.024029741
114	0x3cafb505	0.021448622
115	0x3cbd2c27	0.023092343
116	0xbc84d80a	-0.016216297
117	0x3bc3819a	0.0059663774
118	0xbca19682	-0.019725088
119	0x3b890109	0.0041810316
120	0x3c13217a	0.008980149
121	0x3c99cce0	0.01877445
122	0xbc8cf025	-0.017204354
123	0xbcbaac3d	-0.022787208
124	0xbcffe310	-0.031236202
125	0x3c9b494e	0.018955853
126	0x3b0e0ef4	0.0021676393
127	0x3c3ecd40	0.011645615
128	0xbc8e9c44	-0.017408498
129	0xbcde8db0	-0.027167171
130	0x3d03f866	0.032219313
131	0x3c01daf7	0.00792574
132	0xbcbdb42f	-0.023157207
133	0xbce5c36b	-0.028047284
134	0x3ce39b19	0.027783917
135	0xbc12715a	-0.008938158
136	0xbc0166f0	-0.007898077
137	0x3d0170f7	0.031601872
138	0xb906e96c	-0.00012866192
139	0xbcd799a2	-0.026318375
140	0x3ca14bc5	0.01968945
141	0x3ca50b21	0.020146908
142	0x3b8017b1	0.0039090742
143	0x3d10ad33	0.035321426
144	0x3d0e43b3	0.03473253
145	0x3ca488dc	0.02008479
146	0xbccbb303	-0.024865633
147	0xbcceb931	-0.02523479
148	0xbc9b4a7e	-0.01895642
149	0x3c4e6aca	0.012598703
150	0x3bd757c3	0.0065717413
151	0xbc5ccc39	-0.013476425
152	0x3c98756e	0.018610682
153	0xbac7d08d	-0.0015244648
154	0x3ca64e2d	0.020300949
155	0xbca3c7eb	-0.01999279
156	0x3d05e90a	0.032692946
157	0xbd0cea59	-0.03440318
158	0x3b1c73c0	0.0023872703
159	0x3cb9fdde	0.022704061
160	0x3c8d794e	0.017269757
161	0xbd0ced73	-0.034406137
162	0xbad85bcc	-0.001650685
163	0xb92619f3	-0.0001584066
164	0x3cdd2874	0.026996829
165	0x3ccc596d	0.024944985
166	0xbcd343d3	-0.025789177
167	0xbb934949	-0.0044948203
168	0xbcb5eb69	-0.022206979
169	0xbcf45e95	-0.029830256
170	0x3c91c58d	0.017794395
171	0xbc23506c	-0.009967905
172	0xbbc58d7d	-0.0060288296
173	0x3c68489c	0.014177468
174	0xbd060fd5	-0.032729942
175	0xbd080295	-0.033205587
176	0x3c09a32a	0.008400718
177	0xbc458ffc	-0.012058254
178	0xbce6b08f	-0.028160362
179	0x3c82f264	0.015984721
180	0xbd0a4f15	-0.033766825
181	0xbc3fd7f1	-0.011709199
182	0xbc9e3bbf	-0.019315599
183	0x3b0f8113	0.0021897003
184	0x3c632461	0.013863654
185	0x3c8df88e	0.017330434
186	0x3c984be9	0.018590884
187	0xbc863040	-0.01638043
188	0x3d13e096	0.036102854
189	0x3c56e17b	0.013115282
190	0x3c5dc194	0.013534922
191	0x3c264ac9	0.010149666
192	0xbd01f1a6	-0.031724595
193	0xbbdfb877	-0.00682741
194	0xbb905f6a	-0.0044059055
195	0xbc9627cb	-0.018329522
196	0xbcbb768d	-0.022883678
197	0x3cf07b74	0.029355742
198	0x3c96dc6c	0.018415652
199	0xbcda93c1	-0.026681783
200	0x3ccec34a	0.025239605
201	0xbcba928a	-0.022774953
202	0x3c9869a9	0.01860507
203	0xbc90cdfd	-0.017676348
204	0x3c150787	0.009096033
205	0xbcc38ec8	-0.023871794
206	0xbd151f0d	-0.036406565
207	0xbbfd9a01	-0.007739306
208	0x3cb31a17	0.021863027
209	0xbcc48e82	-0.023993734
210	0x3cb4c0b0	0.022064537
211	0xbc04e1d8	-0.008110486
212	0x3ccfdc2c	0.02537354
213	0xbc4e0057	-0.012573323
214	0xbcff722a	-0.031182367
215	0x3aaba4a8	0.0013095336
216	0xbc35f88b	-0.011106621
217	0x3bbe8764	0.0058144797
218	0x3c7f1f3c	0.015571412
219	0x3c3c3c78	0.011489026
220	0x3cbaecf5	0.022818068
221	0xbcfe5893	-0.031048095
222	0xbcefd4d3	-0.029276287
223	0xbcafe8c2	-0.021473292
224	0xbc57dd92	-0.013175385
225	0x3bc675df	0.006056532
226	0xbc1f4139	-0.00972014
227	0x3ccd25e2	0.025042478
228	0xbcb9151c	-0.022593074
229	0x3bd8b591	0.0066134413
230	0xbc8b206c	-0.016983233
231	0xbabca7e7	-0.00143933
232	0xbcf4280f	-0.029804258
233	0xbc7653cb	-0.015034626
234	0x3b1d3bf6	0.0023992038
235	0xbccf194a	-0.025280613
236	0xbb089a9b	-0.0020844105
237	0x3bb19328	0.0054191537
238	0x3c78d492	0.015187399
239	0xbb883a1b	-0.0041573173
240	0xbcf38542	-0.029726628
241	0x3cb54a69	0.022130208
242	0x3c7e2f8f	0.015514269
243	0x3b895faf	0.0041923146
244	0x3c6fa1e0	0.014625996
245	0xbc7bb46c	-0.01536284
246	0xbbd50b07	-0.0065015587
247	0x3b93f812	0.0045156563
248	0x3c451435	0.0120287435
249	0x3b4f1ba5	0.003160217
250	0x3bd4eb4a	0.006497775
251	0xbcd032a9	-0.025414782
252	0xbc8a0ece	-0.016852763
253	0x3c43fe85	0.011962538
254	0xbbfacffc	-0.007654188
255	0xba844644	-0.0010091742

fc1.bias f4 [198]
0	0xbce506a1	-0.027957262
1	0xbb036767	-0.0020050646
2	0x3ccb526d	0.024819577
3	0x3c283e06	0.010268694
4	0x3c73d695	0.014882703
5	0xbd02e7cd	-0.031959344
6	0xbd1aa7df	-0.03775775
7	0x3d0b1bce	0.033962063
8	0x3c1cc946	0.009569472
9	0xbd1578ba	-0.036492087
10	0xbc0e7c8c	-0.0086966865
11	0xbd0262e4	-0.03183259
12	0xbcf258f9	-0.029583441
13	0x3d001b7d	0.031276215
14	0x3c19d469	0.009389021
15	0x3c8a5a32	0.016888712
16	0xbcc70e3e	-0.024298783
17	0x3c1d3d20	0.009597093
18	0xbcee5418	-0.029092833
19	0x3cbb53b8	0.022867069
20	0xbbb751b0	-0.0055944547
21	0x3c22134b	0.009892295
22	0x39549d29	0.00020276442
23	0x3ca70681	0.020388843
24	0x3cf81fd7	0.03028862
25	0x3cf449ad	0.029820288
26	0xbb272de9	-0.0025509542
27	0x3cb65045	0.022255072
28	0x3d0a01f8	0.033693284
29	0xbc887df8	-0.01666163
30	0xbc11768a	-0.00887836
31	0x3ca0a459	0.019609617
32	0x3bb09623	0.0053889914
33	0xbca23394	-0.019799985
34	0x3c8ea607	0.017413152
35	0x3ccb92ef	0.024850337
36	0x3cbfa600	0.023394585
37	0x3bd3a351	0.006458678
38	0x3cb84ba7	0.022497011
39	0xbc9b33d1	-0.018945606
40	0x3cf579fc	0.029965393
41	0x3ca8d23b	0.020608058
42	0x3ac69db4	0.00151532
43	0x3cfade0f	0.030623464
44	0x3c1f1b79	0.00971114
45	0xbca3eef0	-0.020011395
46	0xbcdf0e98	-0.027228639
47	0xbd1169d7	-0.035501327
48	0x3d1b462b	0.037908714
49	0x3c2be439	0.010491424
50	0x3c338a57	0.010958276
51	0xbce60657	-0.028079195
52	0x3ca8bc7d	0.02059769
53	0x3cb8b8ce	0.02254906
54	0x3cef5d95	0.029219428
55	0xbbaa3c57	-0.0051951814
56	0x3c226499	0.00991168
57	0xbc35a6b0	-0.011087105
58	0x3d1d1421	0.038349275
59	0xbc912cd1	-0.017721565
60	0x3bc5576a	0.0060223835
61	0x3cd28382	0.025697473
62	0xbb0f9327	-0.0021907778
63	0x3c88d31c	0.016702227
64	0x3abfeae1	0.0014642143
65	0xbcc421ec	-0.023941956
66	0x3c89a768	0.016803458
67	0x3c561b74	0.013068069
68	0xbc02ebf6	-0.007990828
69	0xbb7ee385	-0.0038892936
70	0xbc8b111d	-0.016975934
71	0xbcbb4b75	-0.02286313
72	0xbcd3a237	-0.025834186
73	0xbcbf4b69	-0.023351388
74	0x3ba4c803	0.005028726
75	0xbd0977ed	-0.033561636
76	0x3cec5ce5	0.02885289
77	0xbcbaed83	-0.022818333
78	0x3cbac7fc	0.022800438
79	0x3c231148	0.009952851
80	0x3c51fc93	0.012816566
81	0x3cd5427e	0.026032683
82	0x3beff105	0.007322433
83	0x3bdb6ca8	0.0066963024
84	0xbcecb0c4	-0.028892882
85	0xbcd44ff1	-0.025917025
86	0xbc767dc4	-0.015044633
87	0xbca941cd	-0.02066126
88	0x3c545447	0.012959546
89	0x3cb63370	0.022241324
90	0x3d04bf8d	0.03240924
91	0xbcd33206	-0.025780689
92	0xbcd04073	-0.025421357
93	0x3cdafcd6	0.02673189
94	0x3c1125ad	0.00885908
95	0xbc8fe8cf	-0.017567066
96	0x3b94bb69	0.0045389426
97	0x3d00e6c2	0.031470068
98	0x3adbf6ce	0.0016781928
99	0x3d12a7d7	0.035804596
100	0xbcf35809	-0.029705064
101	0x3d1af3c6	0.037830137
102	0xbd266cac	-0.04063098
103	0x3b8a2708	0.0042160787
104	0x3c5a9300	0.013340712
105	0xbcc892d2	-0.024484072
106	0xbc043ac1	-0.008070649
107	0x3c97e8b4	0.018543579
108	0xbc57ad43	-0.013163867
109	0x3c9a20fa	0.018814553
110	0x3a70d046	0.00091863086
111	0x3ca55f10	0.02018693
112	0xbc7bcd05	-0.015368705
113	0xbc181b17	-0.0092838025
114	0x3ceecd3c	0.029150598
115	0xbc05db9c	-0.008170035
116	0x3d0baf53	0.03410275
117	0x3c0eab59	0.008707845
118	0x3d09a9a6	0.033609055
119	0xbce3b452	-0.027795944
120	0xbc27fe6c	-0.01025353
121	0x3cf5e4a4	0.03001625
122	0x3ba0e5c7	0.004910204
123	0xbcfd5ed1	-0.030929001
124	0xbd07c526	-0.033147
125	0x3cdb15b5	0.02674375
126	0xbc4296e8	-0.011876799
127	0xbc01c6a6	-0.007920897
128	0xbcd92b65	-0.02650995
129	0xbb292900	-0.0025811791
130	0x3a983a51	0.0011614059
131	0xbc8bccd7	-0.017065449
132	0xbca36cb4	-0.019949295
133	0xbbfa5597	-0.0076395976
134	0x3c468567	0.012116767
135	0xbca641cf	-0.020295052
136	0xbcdf5b54	-0.027265228
137	0xbd11995a	-0.035546638
138	0xbce83507	-0.028345598
139	0xbc578a03	-0.013155463
140	0x3cbc75ca	0.023005385
141	0xbb661950	-0.0035110302
142	0xbc66fb3c	-0.014097985
143	0xbcb06b15	-0.021535436
144	0xbcff191a	-0.031139899
145	0x368ff470	4.2901884e-06
146	0xbcd2d67d	-0.025737042
147	0x3c13e834	0.0090275295
148	0x3d13176d	0.035911012
149	0xbbb1c35a	-0.005424899
150	0x3cf69551	0.030100496
151	0xbd13d25a	-0.03608928
152	0xbaa589e6	-0.0012629598
153	0x3caf772d	0.021419132
154	0x3c1ea963	0.00968394
155	0xbcb1bf51	-0.021697672
156	0xbd076dc7	-0.033063676
157	0x3ceb5d9d	0.028731162
158	0xbd121585	-0.035665054
159	0x3ce7d88c	0.0283015
160	0xbc2196c4	-0.0098626055
161	0xbce8792c	-0.028378092
162	0xbbd36602	-0.0064513693
163	0x3bda07e1	0.0066537713
164	0xbd0b4f98	-0.034011453
165	0xbc4a22ae	-0.01233737
166	0x3c9fd48d	0.019510532
167	0x3bcb6ed1	0.0062082787
168	0xbc9b811c	-0.018982463
169	0x3c3165ec	0.010827523
170	0x3bfd0262	0.0077212313
171	0x3cedc89a	0.029026318
172	0xbcec6aec	-0.028859578
173	0xbcfc8dab	-0.030829271
174	0xbc4b6e8f	-0.012416496
175	0xbcce9194	-0.025215901
176	0xbb7adc4e	-0.0038278284
177	0xbd042696	-0.03226336
178	0xbb845d58	-0.0040394478
179	0xbd10c48c	-0.03534369
180	0x3cea1fdc	0.028579645
181	0x390a6e10	0.00013201707
182	0x3d0b7e24	0.034055844
183	0xbca22ec8	-0.019797698
184	0xbc75fc46	-0.01501376
185	0x3c89c3e1	0.016817035
186	0x3cd9d990	0.026593
187	0xbc77d754	-0.015127022
188	0xbb2485d0	-0.0025104173
189	0xbd0744b2	-0.033024497
190	0x3c8de9f9	0.01732348
191	0x3c693a0a	0.014235029
192	0xbced3db8	-0.028960094
193	0x3c28a263	0.010292622
194	0x3ba3dc6f	0.005000643
195	0x3c3da8d8	0.0115759
196	0xbd186245	-0.037203092
197	0x3be62159	0.0070230183

fc2.weight f4 [99, 198]
0	0xbb054f79	-0.002034156
1	0xbca93aff	-0.020658014
2	0x3ce45ceb	0.027876338
3	0xbd2e16f9	-0.042502377
4	0xbe068ae8	-0.13138926
5	0x3db3a29d	0.087712504
6	0xbc541ca2	-0.01294628
7	0xbd514d98	-0.05109939
8	0x3d3f82e9	0.046755705
9	0x3e57e73d	0.21084304
10	0xbb765cb1	-0.003759187
11	0xbde23170	-0.11044586
12	0xbd5a10fb	-0.05323885
13	0xbd4b6cdb	-0.04966436
14	0xbd9be956	-0.07612865
15	0x3cfe8a09	0.03107168
16	0xbc787a9b	-0.01516595
17	0xba139033	-0.00056290923
18	0xbd6e4648	-0.058172494
19	0x3bf36465	0.0074277394
20	0x3ca93ee8	0.020659879
21	0xbc573a23	-0.0131364195
22	0x3c1c20a5	0.009529267
23	0xbd663f9f	-0.056213018
24	0x3cd004f2	0.025392983
25	0xbd0ec3c5	-0.03485467
26	0xbb7b753b	-0.0038369435
27	0x3cf54f54	0.029945053
28	0xbd859b7a	-0.065237954
29	0xbcbd69d8	-0.02312176
30	0x3dd59dea	0.1043051
31	0xbda8a1f4	-0.08234015
32	0x3d9656dd	0.073407866
33	0xbdebf741	-0.11521769
34	0x3e2c11c6	0.16803655
35	0xbb9fc929	-0.004876275
36	0xbcc39a44	-0.02387727
37	0xbdb6c641	-0.08924533
38	0x3c697d58	0.014251076
39	0xbd896d86	-0.06710343
40	0x3e369b1b	0.17832606
41	0x3d933dd7	0.071895294
42	0x3c4cece5	0.012507652
43	0x3ca3795e	0.019955333
44	0xbd08f0e9	-0.033432875
45	0xbd5a9593	-0.0533653
46	0xbc6a7cd0	-0.014311984
47	0xbdbb5f2a	-0.091490105
48	0xbd7570bf	-0.059921976
49	0x3d947e6d	0.07250676
50	0x3dcdde44	0.100521594
51	0xbcdbede6	-0.026846837
52	0xbd9176c9	-0.071027346
53	0x3c9520ca	0.018204112
54	0xbdd4cdb9	-0.10390801
55	0x3de3d37e	0.11124323
56	0xbd878381	-0.06616879
57	0xbe1e6cb1	-0.1547115
58	0xbdc26ac8	-0.09493023
59	0x3d79b47a	0.06096313
60	0x3bcc2ea0	0.006231144
61	0x3d723d6a	0.0591406
62	0x3dd909bc	0.1059756
63	0x3e194d91	0.14970995
64	0x3d62ee96	0.055403315
65	0xbd8102e9	-0.06299383
66	0xbdd7bd5e	-0.10534166
67	0xbd0e9b7d	-0.034816254
68	0x3d86e4f8	0.06586641
69	0x3d8a3603	0.06748583
70	0x3dbcbe0a	0.092159346
71	0x3d5cec49	0.053936277
72	0x3c03db17	0.008047841
73	0xbd8875c3	-0.06663086
74	0xbdb79206	-0.08963399
75	0xbd859926	-0.06523351
76	0x3d8ab1bb	0.06772181
77	0x3d05c903	0.032662403
78	0xbdfab2c8	-0.12241131
79	0x3d5ba9fd	0.05362891
80	0xbbe3834b	-0.0069431416
81	0xbae8df5d	-0.0017766763
82	0x3c9e0657	0.019290132
83	0x3db7974c	0.089644045
84	0x3e1cb63f	0.15303896
85	0xbbec8c51	-0.0072188755
86	0xbcfb1cc4	-0.030653365
87	0x3d69b880	0.05706072
88	0xbcf1e8bf	-0.029529927
89	0x3c987f4c	0.018615387
90	0x3d7678f3	0.06017394
91	0xbd1722f7	-0.03689858
92	0xbdf240d6	-0.11828773
93	0x3d894b94	0.067038685
94	0xbe0a5cf5	-0.13512023
95	0xbdb2d90b	-0.08732804
96	0xbd666411	-0.056247775
97	0xbd7c0a26	-0.061533116
98	0x3d557a5f	0.052118655
99	0x3d0335c9	0.032033715
100	0xbccfd94f	-0.025372175
101	0xbda46f17	-0.08029001
102	0xbd0144f8	-0.031559914
103	0xbc83beee	-0.016082253
104	0xbdb3d894	-0.087815434
105	0xbd8ee448	-0.06977135
106	0x3d3dd11e	0.046342008
107	0x3d8ff46d	0.070290424
108	0x3dadb027	0.08480864
109	0x3b68258c	0.003542277
110	0x3cf895a1	0.030344786
111	0x3cc4fd8b	0.02404668
112	0x3ce2a3eb	0.027666053
113	0x3ce4d169	0.027931886
114	0x3d8c4164	0.0684841
115	0xbd23eb94	-0.040019587
116	0x3bedbef8	0.0072554313
117	0xbcc05db7	-0.023482187
118	0xbb08c32f	-0.0020868292
119	0xbab64140	-0.0013904944
120	0xbccb5e84	-0.024825342
121	0x3da49195	0.0803558
122	0xbe045b78	-0.12925518
123	0x3d06c3f7	0.03290173
124	0x3e15d3bf	0.14631556
125	0xbc83efa7	-0.016105486
126	0xbd01be3c	-0.031675562
127	0xbd395a9c	-0.045252427
128	0xbd7248fb	-0.05915163
129	0x3c38fa2f	0.011290117
130	0xbd804d6c	-0.06264767
131	0x3e363766	0.1779457
132	0x3c87c950	0.016575485
133	0xbcb02304	-0.021501072
134	0x3d21b202	0.039476402
135	0x3d903272	0.07040872
136	0x3d3724c0	0.044712782
137	0x3d2179bb	0.03942273
138	0x3c0e7ca4	0.008696709
139	0xbd8a2b09	-0.067464896
140	0x3d6009dc	0.054696903
141	0x3cd44e28	0.025916174
142	0xbafd12d6	-0.0019307982
143	0xbdb7d606	-0.089763686
144	0xbd13aeaf	-0.036055263
145	0x3d7f858b	0.062383216
146	0xbd800328	-0.06250602
147	0x3c23cb39	0.0099971825
148	0x3dd6f184	0.10495284
149	0x3dd22daf	0.1026262
150	0xbbd225c9	-0.0064131957
151	0x3d22c8a6	0.039742135
152	0xbdb708f5	-0.08937255
153	0x3c280b7c	0.010256644
154	0x3b93f079	0.0045147506
155	0x3c474121	0.012161524
156	0x3d2465ce	0.04013615
157	0xbd36d7c3	-0.04463936
158	0xbca8e20e	-0.020615604
159	0x3cec2123	0.028824395
160	0xbc12f0c3	-0.008968535
161	0x3d269d27	0.040677216
162	0x3da58d57	0.08083599
163	0x3c4c425c	0.012466993
164	0xbda6c1fb	-0.081424676
165	0x3d2c2ac8	0.042032987
166	0x3d89a4a0	0.06720853
167	0x3dc61aec	0.09673104
168	0x3d53ffe1	0.051757697
169	0xbb8dd7c0	-0.004328698
170	0x3cb346ea	0.0218844
171	0x3d96a461	0.073555715
172	0xba43c95b	-0.0007468664
173	0xbcd74d74	-0.02628205
174	0x3da4e328	0.08051139
175	0xbe0ffd09	-0.14061369
176	0xbd4b0a8e	-0.049570613
177	0xbc5db358	-0.013531528
178	0x3bb762d3	0.0055964976
179	0x3d8797ce	0.06620751
180	0x3d8ad3e9	0.067787
181	0xbd94a780	-0.072585106
182	0x3c695d3e	0.014243422
183	0xbc46f5bd	-0.0121435495
184	0xba23e395	-0.0006251869
185	0xbd5276cb	-0.05138282
186	0x3d5add83	0.053433906
187	0xbd3a305b	-0.04545627
188	0x3cad79b6	0.0211762
189	0xbd6d77fe	-0.05797576
190	0xbd678deb	-0.056531828
191	0x3d4a3630	0.049368083
192	0x3cd51189	0.026009338
193	0xbbb88042	-0.005630524
194	0x3c922347	0.017839087
195	0x3db4c615	0.08826844
196	0x3dd202a7	0.10254412
197	0xbca612ca	-0.020272631
198	0xbd616688	-0.055029422
199	0x3dc88976	0.097918436
200	0x3cad30b1	0.021141382
201	0x3d70d6d5	0.05879863
202	0xbe879c44	-0.2648641
203	0x3e158b0e	0.14603826
204	0xbce2fcd4	-0.027708448
205	0x3d593fe9	0.053039465
206	0x3d6ef0d5	0.058335144
207	0x3e0252f9	0.12726964
208	0xbca1748f	-0.0197089
209	0xbdb9397b	-0.09044167
210	0xbd35f706	-0.044425033
211	0x3d06f5ad	0.03294914
212	0x3c65fbaa	0.014037052
213	0x3d693adf	0.05694091
214	0x3d6d0c70	0.05787319
215	0xbc8529f7	-0.016255362
216	0x3c5a92d0	0.013340667
217	0xbcd15004	-0.02555085
218	0xbd8819dd	-0.06645558
219	0xbd16a63f	-0.03677964
220	0x3d25581c	0.04036723
221	0xbd498a5d	-0.04920422
222	0xbc3c04cb	-0.011475752
223	0xbd3f9440	-0.04677224
224	0x3d69cfc9	0.057082925
225	0x3d687aff	0.056757923
226	0xbdda07c4	-0.106460124
227	0x3c9fc8c8	0.01950492
228	0x3d24680b	0.040138286
229	0xbe14b888	-0.14523518
230	0x3dbb0c19	0.09133167
231	0xbc3de832	-0.011591004
232	0x3e410304	0.18848807
233	0x3d835332	0.064123526
234	0xbd67ed04	-0.05662252
235	0xbcf35c90	-0.029707223
236	0x3c82fb4d	0.01598897
237	0xbdd1ea63	-0.10249784
238	0x3e1abc67	0.15110932
239	0x3dbb2731	0.091383345
240	0x3d9c7e6b	0.076413
241	0x3b9d6f9f	0.004804566
242	0x3d3ed327	0.04658809
243	0xbd940caa	-0.07228978
244	0x3d21dfae	0.03951996
245	0xbdcd9698	-0.10038489
246	0xbd4cac6e	-0.04996913
247	0x3cc94bb4	0.02457223
248	0x3e05c1c9	0.13062204
249	0x3d424857	0.04743227
250	0x3d45174f	0.048117932
251	0xbb1ef38c	-0.0024254052
252	0xbcaa58ce	-0.020794298
253	0x3d99d8f5	0.075120844
254	0xbd95ff94	-0.07324138
255	0xbde6dd85	-0.1127272

fc2.bias f4 [99]
0	0x3d30cc9a	0.043163873
1	0x3c2f0be2	0.010683985
2	0x3d6227d3	0.05521376
3	0x3d826376	0.06366627
4	0x3d3aac97	0.04557475
5	0x3d61d202	0.05513192
6	0x3d9b33d1	0.075782426
7	0x3d1a933d	0.037738074
8	0xbbcb971d	-0.0062130825
9	0x3cd54cca	0.026037592
10	0x3ca4948f	0.02009037
11	0x3bf338f6	0.0074225618
12	0x3d79b294	0.06096132
13	0xbcd63eae	-0.026152935
14	0x392e15d8	0.0001660207
15	0xbd6b5e2a	-0.05746285
16	0x3cb0cb7d	0.021581406
17	0x3d057d8d	0.032590438
18	0x3d82e5b3	0.06391468
19	0x3dabdc7b	0.08391663
20	0x3ca41411	0.0200291
21	0x3d8b0c43	0.06789448
22	0x3dc3e30d	0.09564791
23	0x3b9e6c49	0.004834686
24	0x3db12201	0.08649064
25	0x3cde34ea	0.02712484
26	0x3d8859df	0.066577666
27	0x3cd03cad	0.025419557
28	0xbbdb4287	-0.0066912803
29	0xbcee3775	-0.029079178
30	0x3daa28e0	0.083085775
31	0x3be4b47b	0.0069795228
32	0x3ce42142	0.02784789
33	0x3c8aa171	0.016922684
34	0x3cee9438	0.02912341
35	0x3bcfbc51	0.0063395877
36	0x3cc322af	0.02382025
37	0x3c79425c	0.015213575
38	0x3d3de74f	0.04636317
39	0x3d974616	0.07386415
40	0x3d7d2a26	0.061807774
41	0x3d8e9ac3	0.06963112
42	0xbb818b25	-0.003953355
43	0x3d4ea699	0.05045185
44	0x3c64a482	0.013955237
45	0x3c2afa18	0.010435604
46	0xbcf44f2f	-0.029822914
47	0x3d1e626a	0.038668074
48	0x3d9956be	0.07487248
49	0xbcc4e5ec	-0.024035417
50	0x3d8cf8f2	0.0688342
51	0x3dbd9d3a	0.09258504
52	0x3d663128	0.056199223
53	0x3d68fe69	0.05688325
54	0xbca21f85	-0.01979042
55	0xbc6b7fc0	-0.01437372
56	0xbb528184	-0.0032120654
57	0x3d56ab1e	0.052409284
58	0xbc84d350	-0.016214043
59	0x3dc66f91	0.09689248
60	0x3d8845cf	0.0665394
61	0x3c995c81	0.018720867
62	0x3d8f1e1a	0.06988163
63	0xbc9e26fa	-0.019305695
64	0x3d968c2c	0.073509544
65	0x3dbfe297	0.093693905
66	0xbc968951	-0.018376024
67	0xbcd3abf8	-0.025838837
68	0x3dd02977	0.10164159
69	0x3cb077b9	0.021541463
70	0x3db0e5c6	0.08637576
71	0x3d2b40e7	0.041809943
72	0xbb7fcabd	-0.0039030754
73	0x3d9577cf	0.07298242
74	0x3d6f6e18	0.058454603
75	0xbb125b2d	-0.0022332177
76	0x3ca33f9f	0.019927798
77	0xbc3e33e8	-0.011609055
78	0x3db6479b	0.089003764
79	0xbc21abba	-0.009867603
80	0x3cd96bc0	0.026540637
81	0x3d228131	0.039673988
82	0x3c0e62cc	0.008690547
83	0xbc18773d	-0.009305772
84	0xbcacb57e	-0.021082636
85	0x3dbbb1a9	0.09164745
86	0x3c411e55	0.011787017
87	0x3cc5396b	0.02407523
88	0x3d2b5755	0.041831333
89	0x3bb132e3	0.0054076775
90	0x3d03353a	0.032033183
91	0x3d3dfc84	0.046383396
92	0xbd876f61	-0.06613041
93	0x3d13acbc	0.036053404
94	0x3d632e46	0.05546405
95	0x3c4e5b78	0.01259505
96	0xbc9b0356	-0.01892249
97	0x3bf27aed	0.007399908
98	0x3d9e8e42	0.07741977

fc3.weight f4 [3, 99]
0	0x3e6cc27c	0.23121065
1	0x3e4fb3d4	0.20283443
2	0x3e1ffad0	0.15623021
3	0x3b246529	0.002508471
4	0x3cb4b84c	0.022060536
5	0x3e1884b4	0.14894372
6	0x3e0b33f7	0.13594042
7	0x3da813d2	0.082069054
8	0xbcc265f4	-0.023730256
9	0x3df00bf1	0.11721028
10	0xbc0dff13	-0.008666771
11	0xbd88e79a	-0.066847995
12	0xbe077f69	-0.13232197
13	0xbdf7ed5a	-0.12105818
14	0xbe2fe749	-0.17178072
15	0xbdadade3	-0.08480432
16	0xbe1ef015	-0.15521272
17	0xbd4db16e	-0.05021804
18	0xbe568630	-0.20949626
19	0xbde761c1	-0.11297942
20	0xbe49bb5d	-0.1970038
21	0xbe55f2ae	-0.20893356
22	0xbd98b05a	-0.074555114
23	0xbe58a798	-0.21157682
24	0x3e0edfe5	0.13952596
25	0xbe0080ec	-0.1254918
26	0xbe356366	-0.17713699
27	0x3dbdabd3	0.092612885
28	0xbe1b17bb	-0.15145771
29	0xbe6a916e	-0.2290704
30	0xbd27df83	-0.04098464
31	0x3e37350a	0.17891327
32	0xbe6417e5	-0.2227474
33	0x3e205599	0.15657653
34	0xbe07d705	-0.13265617
35	0x3e0fe0a6	0.1405054
36	0x3e4fd11e	0.20294616
37	0x3cbabfe6	0.022796582
38	0x3e64e067	0.22351228
39	0x3e1ccaf8	0.15311801
40	0xbe4fd725	-0.20296915
41	0xbba75c2a	-0.0051074224
42	0xbe74d79c	-0.23910373
43	0xbdc6182c	-0.09672579
44	0xbd260fad	-0.040542293
45	0xbe1430f3	-0.14471798
46	0xbe822635	-0.25419775
47	0xbe87956e	-0.26481193
48	0x3d1ee0e7	0.038788702
49	0x3e31d606	0.173668
50	0x3e04135b	0.12898009
51	0xbc3e6d42	-0.011622729
52	0x3e46951d	0.1939282
53	0xbe45f775	-0.19332679
54	0xbde5ec5f	-0.11226725
55	0xbe322c35	-0.17399676
56	0x3bb2a99f	0.0054523493
57	0x3ceccf22	0.028907362
58	0x3e11ba3b	0.14231198
59	0xbe1c792e	-0.15280601
60	0xbe57a5da	-0.21059361
61	0xbdcfb320	-0.10141587
62	0xbe527599	-0.20552672
63	0xbe77404e	-0.24145624
64	0x3dfac20a	0.12244041
65	0x3dd1854c	0.102305025
66	0x3d986ec9	0.074430056
67	0xbe10bf8f	-0.14135574
68	0xbdb2a670	-0.08723152
69	0xbe072520	-0.13197756
70	0xbe5cc225	-0.21558435
71	0xbe01e47a	-0.12684813
72	0x3e8d3b11	0.27584127
73	0x3e4520c1	0.19250776
74	0xbe1f34df	-0.15547512
75	0xbdb7a7b2	-0.08967532
76	0xbe6ffd80	-0.23436546
77	0xbc6ce069	-0.0144578
78	0x3e50a4b3	0.20375328
79	0xbe750b3f	-0.23930071
80	0xbe37cd92	-0.17949513
81	0xbe1d0603	-0.15334325
82	0x3e235e91	0.15954043
83	0xbe450a65	-0.19242246
84	0x3e5460ac	0.20740002
85	0x3e5b8550	0.21437573
86	0x3e2c453c	0.16823286
87	0xbc71be03	-0.014754775
88	0x3de9708c	0.1139842
89	0xbe709f11	-0.23498179
90	0x3dd2dde6	0.1029623
91	0xbe82cb30	-0.25545645
92	0xbd733add	-0.05938231
93	0xbe130aa5	-0.1435953
94	0xbe5812a2	-0.21100858
95	0xbe513241	-0.20429327
96	0xbe2ec23e	-0.17066285
97	0xbcb8c72b	-0.022555908
98	0x3e16c0d8	0.14722002
99	0xbdd8c621	-0.10584665
100	0x3d140bf2	0.036144204
101	0xbe01b50b	-0.12666719
102	0x3e1be105	0.15222557
103	0x3e2868b3	0.1644619
104	0x3d935b4e	0.07195149
105	0xbe070633	-0.13185959
106	0x3db94026	0.090454385
107	0xbc952707	-0.018207086
108	0x3dd09698	0.101849735
109	0x3e0b80fe	0.13623425
110	0x3de204d0	0.11036074
111	0x3dcda1ed	0.100406505
112	0x3e3dff56	0.18554434
113	0x3e37dfc7	0.17956458
114	0x3cc5c9a7	0.024144007
115	0xbd46b4fd	-0.048512448
116	0x3dd48a9b	0.103779994
117	0x3d6cc36f	0.057803567
118	0xbe299542	-0.16560844
119	0xbdec2367	-0.1153019
120	0x3e3f8e79	0.18706693
121	0xbe1ad44c	-0.15120047
122	0x3d94a390	0.072577596
123	0xbdcd4854	-0.10023561
124	0xbce6e67a	-0.028186072
125	0x3e1a6c5b	0.15080397
126	0x3dc2c81d	0.09510825
127	0x3e5135f0	0.20430732
128	0x3df6e34b	0.120550714
129	0xbdfef3cc	-0.12448844
130	0xbe2eea4f	-0.17081569
131	0x3e32d386	0.17463502
132	0xbdc18eeb	-0.094510876
133	0x3e22d8c8	0.15903008
134	0x3d94ea0c	0.072712034
135	0xbe2f2b7e	-0.17106435
136	0x3dabe288	0.08392817
137	0xbe4de521	-0.20106937
138	0x3db6c66e	0.08924566
139	0x3e447928	0.19186842
140	0xbc37ede1	-0.011226148
141	0x3da567db	0.080764495
142	0x3e3a59cd	0.18198319
143	0x3d571a6b	0.05251543
144	0x3e3a912d	0.18219443
145	0x3d434489	0.047672782
146	0xbd4d9cc0	-0.050198317
147	0xbe469170	-0.19391418
148	0xbd005510	-0.031331122
149	0x3a059b4a	0.0005096687
150	0xbe44a78a	-0.19204536
151	0xbda10843	-0.07862904
152	0x3e2b7647	0.16744338
153	0x3cc7716a	0.024346072
154	0x3e4cd1ed	0.20001955
155	0xbe4a9210	-0.19782281
156	0x3dc5755c	0.09641525
157	0x3ccdf371	0.025140496
158	0xbe227d82	-0.1586819
159	0x3d5d0781	0.053962234
160	0x3e4e38d5	0.20138867
161	0x3de2d1ad	0.11075149
162	0x3df7e9c0	0.12105131
163	0xbd9faea2	-0.077969804
164	0xbe605bb4	-0.21909982
165	0xbd0f2e4d	-0.034956265
166	0xbd8fbdb0	-0.07018602
167	0xbe2c9c73	-0.16856556
168	0x3e163f4f	0.14672588
169	0xbdce4662	-0.10072018
170	0x3e48c600	0.19606781
171	0xbe20c925	-0.1570173
172	0xbe75137c	-0.23933214
173	0x3cbfdebb	0.023421636
174	0x3e174e26	0.14775905
175	0x3da24ec9	0.07925183
176	0xbe1926a1	-0.14956142
177	0xbe1061c2	-0.14099792
178	0x3e4aa0e3	0.19787936
179	0x3e6897f9	0.22714223
180	0x3e236039	0.15954675
181	0xbe149ab2	-0.14512137
182	0x3e44c33a	0.19215098
183	0xbe55c97f	-0.20877646
184	0xbe078528	-0.13234389
185	0xbdfd6123	-0.12372043
186	0xbd54109a	-0.051773645
187	0x3dbd0ef8	0.09231371
188	0xbd413b6d	-0.047175813
189	0x3d2c3102	0.042038925
190	0x3e1ba8cd	0.15201111
191	0x3c0a8bd3	0.008456188
192	0x3dfb6af4	0.12276259
193	0x3e1a60f7	0.15076052
194	0x3c6d97a6	0.014501488
195	0x3e2ff5aa	0.17183557
196	0x3d483487	0.04887822
197	0x3d614939	0.05500147
198	0xbdcf7567	-0.101298146
199	0xbe03f99c	-0.12888187
200	0xbe879013	-0.26477107
201	0xbe18c4b4	-0.14918786
202	0xbdfe3a44	-0.12413457
203	0xbe750963	-0.23929362
204	0xbe33c8d5	-0.1755708
205	0xbe092df1	-0.13396432
206	0x3e13e1cd	0.14441605
207	0xbe48965c	-0.19588608
208	0xbe29d965	-0.16586836
209	0xbe098b90	-0.13432145
210	0x3e2d0dba	0.16899768
211	0xbe3ac734	-0.18240052
212	0xbe067746	-0.13131437
213	0xbdaa7191	-0.08322442
214	0x3dd2f2e6	0.103002355
215	0xbe6737d8	-0.22579896
216	0xbdb3175c	-0.0874469
217	0x3d8aa533	0.067697905
218	0x3e4f6c5a	0.20256177
219	0x3c1ec703	0.009691003
220	0x3e60403a	0.218995
221	0xbe0aaa90	-0.13541627
222	0xbe9d7025	-0.30749622
223	0x3e3cfc1a	0.18455544
224	0xbdecb6ab	-0.11558279
225	0xbe8c395c	-0.27387512
226	0xbe1c0153	-0.1523488
227	0xbe0c8813	-0.13723783
228	0x3e8ea270	0.27858305
229	0xbd787605	-0.060659427
230	0x3e1e5b87	0.15464602
231	0xbe89614a	-0.26832038
232	0xbd81fd84	-0.063471824
233	0xbe053d03	-0.13011555
234	0xbe49f662	-0.19722894
235	0xbe415a0e	-0.1888201
236	0x3e066e88	0.13128102
237	0xbe34dd4c	-0.17662543
238	0xbdaff71a	-0.08592053
239	0xbe8198d7	-0.2531192
240	0x3e3d7333	0.18500976
241	0xbe4e85f2	-0.20168284
242	0xbe64bfba	-0.22338763
243	0xbd4e99e9	-0.05043975
244	0x3d15267b	0.03641365
245	0x3e5be4e5	0.21474035
246	0x3e3daaaf	0.18522142
247	0xbe3b4da6	-0.1829134
248	0xbe7b6b32	-0.2455261
249	0x3e6a51a8	0.22882712
250	0x3d83e855	0.06440798
251	0xbdfa6088	-0.12225443
252	0x3e630356	0.22169241
253	0x3dc20a15	0.09474579
254	0x3e5d4e0d	0.21611805
255	0xbe878b9f	-0.2647371

fc3.bias f4 [3]
0	0x3d3db149	0.04631165
1	0x3dce8870	0.10084617
2	0xbdad8af6	-0.0847377
